{
  "storage" : "model.espresso.weights",
  "properties" : {

  },
  "format_version" : 200,
  "layers" : [
    {
      "pad_r" : 0,
      "fused_relu" : 1,
      "fused_tanh" : 0,
      "pad_fill_mode" : 0,
      "pad_b" : 0,
      "pad_l" : 0,
      "top" : "relu_MobilenetV1\/MobilenetV1\/Conv2d_0\/Relu6:0",
      "blob_weights" : 3,
      "K" : 3,
      "blob_biases" : 1,
      "stride_x" : 2,
      "name" : "MobilenetV1\/MobilenetV1\/Conv2d_0\/Conv2D:0",
      "has_batch_norm" : 0,
      "type" : "convolution",
      "n_groups" : 1,
      "pad_t" : 0,
      "stride_y" : 2,
      "has_biases" : 1,
      "C" : 32,
      "bottom" : "input__0",
      "weights" : {

      },
      "Nx" : 3,
      "pad_mode" : 1,
      "pad_value" : 0,
      "Ny" : 3,
      "n_parallel" : 1
    },
    {
      "alpha" : -1,
      "bottom" : "relu_MobilenetV1\/MobilenetV1\/Conv2d_0\/Relu6:0",
      "weights" : {

      },
      "mode" : 6,
      "top" : "relu_MobilenetV1\/MobilenetV1\/Conv2d_0\/Relu6:0_neg",
      "type" : "activation",
      "name" : "relu_MobilenetV1\/MobilenetV1\/Conv2d_0\/Relu6:0_neg",
      "beta" : 0
    },
    {
      "alpha" : -6,
      "bottom" : "relu_MobilenetV1\/MobilenetV1\/Conv2d_0\/Relu6:0_neg",
      "operation" : 25,
      "weights" : {

      },
      "fused_relu" : 0,
      "top" : "relu_MobilenetV1\/MobilenetV1\/Conv2d_0\/Relu6:0_clip",
      "type" : "elementwise",
      "name" : "relu_MobilenetV1\/MobilenetV1\/Conv2d_0\/Relu6:0_clip",
      "beta" : 0
    },
    {
      "alpha" : -1,
      "bottom" : "relu_MobilenetV1\/MobilenetV1\/Conv2d_0\/Relu6:0_clip",
      "weights" : {

      },
      "mode" : 6,
      "top" : "MobilenetV1\/MobilenetV1\/Conv2d_0\/Relu6:0",
      "type" : "activation",
      "name" : "MobilenetV1\/MobilenetV1\/Conv2d_0\/Relu6:0",
      "beta" : 0
    },
    {
      "pad_r" : 0,
      "fused_relu" : 1,
      "fused_tanh" : 0,
      "pad_fill_mode" : 0,
      "pad_b" : 0,
      "pad_l" : 0,
      "top" : "relu_MobilenetV1\/MobilenetV1\/Conv2d_1_depthwise\/Relu6:0",
      "blob_weights" : 7,
      "K" : 32,
      "blob_biases" : 5,
      "name" : "MobilenetV1\/MobilenetV1\/Conv2d_1_depthwise\/depthwise:0",
      "has_batch_norm" : 0,
      "type" : "convolution",
      "n_groups" : 32,
      "pad_t" : 0,
      "has_biases" : 1,
      "C" : 32,
      "bottom" : "MobilenetV1\/MobilenetV1\/Conv2d_0\/Relu6:0",
      "weights" : {

      },
      "pad_mode" : 1,
      "Nx" : 3,
      "pad_value" : 0,
      "Ny" : 3,
      "n_parallel" : 1
    },
    {
      "alpha" : -1,
      "bottom" : "relu_MobilenetV1\/MobilenetV1\/Conv2d_1_depthwise\/Relu6:0",
      "weights" : {

      },
      "mode" : 6,
      "top" : "relu_MobilenetV1\/MobilenetV1\/Conv2d_1_depthwise\/Relu6:0_neg",
      "type" : "activation",
      "name" : "relu_MobilenetV1\/MobilenetV1\/Conv2d_1_depthwise\/Relu6:0_neg",
      "beta" : 0
    },
    {
      "alpha" : -6,
      "bottom" : "relu_MobilenetV1\/MobilenetV1\/Conv2d_1_depthwise\/Relu6:0_neg",
      "operation" : 25,
      "weights" : {

      },
      "fused_relu" : 0,
      "top" : "relu_MobilenetV1\/MobilenetV1\/Conv2d_1_depthwise\/Relu6:0_clip",
      "type" : "elementwise",
      "name" : "relu_MobilenetV1\/MobilenetV1\/Conv2d_1_depthwise\/Relu6:0_clip",
      "beta" : 0
    },
    {
      "alpha" : -1,
      "bottom" : "relu_MobilenetV1\/MobilenetV1\/Conv2d_1_depthwise\/Relu6:0_clip",
      "weights" : {

      },
      "mode" : 6,
      "top" : "MobilenetV1\/MobilenetV1\/Conv2d_1_depthwise\/Relu6:0",
      "type" : "activation",
      "name" : "MobilenetV1\/MobilenetV1\/Conv2d_1_depthwise\/Relu6:0",
      "beta" : 0
    },
    {
      "pad_r" : 0,
      "fused_relu" : 1,
      "fused_tanh" : 0,
      "pad_fill_mode" : 0,
      "pad_b" : 0,
      "pad_l" : 0,
      "top" : "relu_MobilenetV1\/MobilenetV1\/Conv2d_1_pointwise\/Relu6:0",
      "blob_weights" : 11,
      "K" : 32,
      "blob_biases" : 9,
      "name" : "MobilenetV1\/MobilenetV1\/Conv2d_1_pointwise\/Conv2D:0",
      "has_batch_norm" : 0,
      "type" : "convolution",
      "n_groups" : 1,
      "pad_t" : 0,
      "has_biases" : 1,
      "C" : 64,
      "bottom" : "MobilenetV1\/MobilenetV1\/Conv2d_1_depthwise\/Relu6:0",
      "weights" : {

      },
      "pad_mode" : 1,
      "Nx" : 1,
      "pad_value" : 0,
      "Ny" : 1,
      "n_parallel" : 1
    },
    {
      "alpha" : -1,
      "bottom" : "relu_MobilenetV1\/MobilenetV1\/Conv2d_1_pointwise\/Relu6:0",
      "weights" : {

      },
      "mode" : 6,
      "top" : "relu_MobilenetV1\/MobilenetV1\/Conv2d_1_pointwise\/Relu6:0_neg",
      "type" : "activation",
      "name" : "relu_MobilenetV1\/MobilenetV1\/Conv2d_1_pointwise\/Relu6:0_neg",
      "beta" : 0
    },
    {
      "alpha" : -6,
      "bottom" : "relu_MobilenetV1\/MobilenetV1\/Conv2d_1_pointwise\/Relu6:0_neg",
      "operation" : 25,
      "weights" : {

      },
      "fused_relu" : 0,
      "top" : "relu_MobilenetV1\/MobilenetV1\/Conv2d_1_pointwise\/Relu6:0_clip",
      "type" : "elementwise",
      "name" : "relu_MobilenetV1\/MobilenetV1\/Conv2d_1_pointwise\/Relu6:0_clip",
      "beta" : 0
    },
    {
      "alpha" : -1,
      "bottom" : "relu_MobilenetV1\/MobilenetV1\/Conv2d_1_pointwise\/Relu6:0_clip",
      "weights" : {

      },
      "mode" : 6,
      "top" : "MobilenetV1\/MobilenetV1\/Conv2d_1_pointwise\/Relu6:0",
      "type" : "activation",
      "name" : "MobilenetV1\/MobilenetV1\/Conv2d_1_pointwise\/Relu6:0",
      "beta" : 0
    },
    {
      "pad_r" : 0,
      "fused_relu" : 1,
      "fused_tanh" : 0,
      "pad_fill_mode" : 0,
      "pad_b" : 0,
      "pad_l" : 0,
      "top" : "relu_MobilenetV1\/MobilenetV1\/Conv2d_2_depthwise\/Relu6:0",
      "blob_weights" : 15,
      "K" : 64,
      "blob_biases" : 13,
      "stride_x" : 2,
      "name" : "MobilenetV1\/MobilenetV1\/Conv2d_2_depthwise\/depthwise:0",
      "has_batch_norm" : 0,
      "type" : "convolution",
      "n_groups" : 64,
      "pad_t" : 0,
      "stride_y" : 2,
      "has_biases" : 1,
      "C" : 64,
      "bottom" : "MobilenetV1\/MobilenetV1\/Conv2d_1_pointwise\/Relu6:0",
      "weights" : {

      },
      "Nx" : 3,
      "pad_mode" : 1,
      "pad_value" : 0,
      "Ny" : 3,
      "n_parallel" : 1
    },
    {
      "alpha" : -1,
      "bottom" : "relu_MobilenetV1\/MobilenetV1\/Conv2d_2_depthwise\/Relu6:0",
      "weights" : {

      },
      "mode" : 6,
      "top" : "relu_MobilenetV1\/MobilenetV1\/Conv2d_2_depthwise\/Relu6:0_neg",
      "type" : "activation",
      "name" : "relu_MobilenetV1\/MobilenetV1\/Conv2d_2_depthwise\/Relu6:0_neg",
      "beta" : 0
    },
    {
      "alpha" : -6,
      "bottom" : "relu_MobilenetV1\/MobilenetV1\/Conv2d_2_depthwise\/Relu6:0_neg",
      "operation" : 25,
      "weights" : {

      },
      "fused_relu" : 0,
      "top" : "relu_MobilenetV1\/MobilenetV1\/Conv2d_2_depthwise\/Relu6:0_clip",
      "type" : "elementwise",
      "name" : "relu_MobilenetV1\/MobilenetV1\/Conv2d_2_depthwise\/Relu6:0_clip",
      "beta" : 0
    },
    {
      "alpha" : -1,
      "bottom" : "relu_MobilenetV1\/MobilenetV1\/Conv2d_2_depthwise\/Relu6:0_clip",
      "weights" : {

      },
      "mode" : 6,
      "top" : "MobilenetV1\/MobilenetV1\/Conv2d_2_depthwise\/Relu6:0",
      "type" : "activation",
      "name" : "MobilenetV1\/MobilenetV1\/Conv2d_2_depthwise\/Relu6:0",
      "beta" : 0
    },
    {
      "pad_r" : 0,
      "fused_relu" : 1,
      "fused_tanh" : 0,
      "pad_fill_mode" : 0,
      "pad_b" : 0,
      "pad_l" : 0,
      "top" : "relu_MobilenetV1\/MobilenetV1\/Conv2d_2_pointwise\/Relu6:0",
      "blob_weights" : 19,
      "K" : 64,
      "blob_biases" : 17,
      "name" : "MobilenetV1\/MobilenetV1\/Conv2d_2_pointwise\/Conv2D:0",
      "has_batch_norm" : 0,
      "type" : "convolution",
      "n_groups" : 1,
      "pad_t" : 0,
      "has_biases" : 1,
      "C" : 128,
      "bottom" : "MobilenetV1\/MobilenetV1\/Conv2d_2_depthwise\/Relu6:0",
      "weights" : {

      },
      "pad_mode" : 1,
      "Nx" : 1,
      "pad_value" : 0,
      "Ny" : 1,
      "n_parallel" : 1
    },
    {
      "alpha" : -1,
      "bottom" : "relu_MobilenetV1\/MobilenetV1\/Conv2d_2_pointwise\/Relu6:0",
      "weights" : {

      },
      "mode" : 6,
      "top" : "relu_MobilenetV1\/MobilenetV1\/Conv2d_2_pointwise\/Relu6:0_neg",
      "type" : "activation",
      "name" : "relu_MobilenetV1\/MobilenetV1\/Conv2d_2_pointwise\/Relu6:0_neg",
      "beta" : 0
    },
    {
      "alpha" : -6,
      "bottom" : "relu_MobilenetV1\/MobilenetV1\/Conv2d_2_pointwise\/Relu6:0_neg",
      "operation" : 25,
      "weights" : {

      },
      "fused_relu" : 0,
      "top" : "relu_MobilenetV1\/MobilenetV1\/Conv2d_2_pointwise\/Relu6:0_clip",
      "type" : "elementwise",
      "name" : "relu_MobilenetV1\/MobilenetV1\/Conv2d_2_pointwise\/Relu6:0_clip",
      "beta" : 0
    },
    {
      "alpha" : -1,
      "bottom" : "relu_MobilenetV1\/MobilenetV1\/Conv2d_2_pointwise\/Relu6:0_clip",
      "weights" : {

      },
      "mode" : 6,
      "top" : "MobilenetV1\/MobilenetV1\/Conv2d_2_pointwise\/Relu6:0",
      "type" : "activation",
      "name" : "MobilenetV1\/MobilenetV1\/Conv2d_2_pointwise\/Relu6:0",
      "beta" : 0
    },
    {
      "pad_r" : 0,
      "fused_relu" : 1,
      "fused_tanh" : 0,
      "pad_fill_mode" : 0,
      "pad_b" : 0,
      "pad_l" : 0,
      "top" : "relu_MobilenetV1\/MobilenetV1\/Conv2d_3_depthwise\/Relu6:0",
      "blob_weights" : 23,
      "K" : 128,
      "blob_biases" : 21,
      "name" : "MobilenetV1\/MobilenetV1\/Conv2d_3_depthwise\/depthwise:0",
      "has_batch_norm" : 0,
      "type" : "convolution",
      "n_groups" : 128,
      "pad_t" : 0,
      "has_biases" : 1,
      "C" : 128,
      "bottom" : "MobilenetV1\/MobilenetV1\/Conv2d_2_pointwise\/Relu6:0",
      "weights" : {

      },
      "pad_mode" : 1,
      "Nx" : 3,
      "pad_value" : 0,
      "Ny" : 3,
      "n_parallel" : 1
    },
    {
      "alpha" : -1,
      "bottom" : "relu_MobilenetV1\/MobilenetV1\/Conv2d_3_depthwise\/Relu6:0",
      "weights" : {

      },
      "mode" : 6,
      "top" : "relu_MobilenetV1\/MobilenetV1\/Conv2d_3_depthwise\/Relu6:0_neg",
      "type" : "activation",
      "name" : "relu_MobilenetV1\/MobilenetV1\/Conv2d_3_depthwise\/Relu6:0_neg",
      "beta" : 0
    },
    {
      "alpha" : -6,
      "bottom" : "relu_MobilenetV1\/MobilenetV1\/Conv2d_3_depthwise\/Relu6:0_neg",
      "operation" : 25,
      "weights" : {

      },
      "fused_relu" : 0,
      "top" : "relu_MobilenetV1\/MobilenetV1\/Conv2d_3_depthwise\/Relu6:0_clip",
      "type" : "elementwise",
      "name" : "relu_MobilenetV1\/MobilenetV1\/Conv2d_3_depthwise\/Relu6:0_clip",
      "beta" : 0
    },
    {
      "alpha" : -1,
      "bottom" : "relu_MobilenetV1\/MobilenetV1\/Conv2d_3_depthwise\/Relu6:0_clip",
      "weights" : {

      },
      "mode" : 6,
      "top" : "MobilenetV1\/MobilenetV1\/Conv2d_3_depthwise\/Relu6:0",
      "type" : "activation",
      "name" : "MobilenetV1\/MobilenetV1\/Conv2d_3_depthwise\/Relu6:0",
      "beta" : 0
    },
    {
      "pad_r" : 0,
      "fused_relu" : 1,
      "fused_tanh" : 0,
      "pad_fill_mode" : 0,
      "pad_b" : 0,
      "pad_l" : 0,
      "top" : "relu_MobilenetV1\/MobilenetV1\/Conv2d_3_pointwise\/Relu6:0",
      "blob_weights" : 27,
      "K" : 128,
      "blob_biases" : 25,
      "name" : "MobilenetV1\/MobilenetV1\/Conv2d_3_pointwise\/Conv2D:0",
      "has_batch_norm" : 0,
      "type" : "convolution",
      "n_groups" : 1,
      "pad_t" : 0,
      "has_biases" : 1,
      "C" : 128,
      "bottom" : "MobilenetV1\/MobilenetV1\/Conv2d_3_depthwise\/Relu6:0",
      "weights" : {

      },
      "pad_mode" : 1,
      "Nx" : 1,
      "pad_value" : 0,
      "Ny" : 1,
      "n_parallel" : 1
    },
    {
      "alpha" : -1,
      "bottom" : "relu_MobilenetV1\/MobilenetV1\/Conv2d_3_pointwise\/Relu6:0",
      "weights" : {

      },
      "mode" : 6,
      "top" : "relu_MobilenetV1\/MobilenetV1\/Conv2d_3_pointwise\/Relu6:0_neg",
      "type" : "activation",
      "name" : "relu_MobilenetV1\/MobilenetV1\/Conv2d_3_pointwise\/Relu6:0_neg",
      "beta" : 0
    },
    {
      "alpha" : -6,
      "bottom" : "relu_MobilenetV1\/MobilenetV1\/Conv2d_3_pointwise\/Relu6:0_neg",
      "operation" : 25,
      "weights" : {

      },
      "fused_relu" : 0,
      "top" : "relu_MobilenetV1\/MobilenetV1\/Conv2d_3_pointwise\/Relu6:0_clip",
      "type" : "elementwise",
      "name" : "relu_MobilenetV1\/MobilenetV1\/Conv2d_3_pointwise\/Relu6:0_clip",
      "beta" : 0
    },
    {
      "alpha" : -1,
      "bottom" : "relu_MobilenetV1\/MobilenetV1\/Conv2d_3_pointwise\/Relu6:0_clip",
      "weights" : {

      },
      "mode" : 6,
      "top" : "MobilenetV1\/MobilenetV1\/Conv2d_3_pointwise\/Relu6:0",
      "type" : "activation",
      "name" : "MobilenetV1\/MobilenetV1\/Conv2d_3_pointwise\/Relu6:0",
      "beta" : 0
    },
    {
      "pad_r" : 0,
      "fused_relu" : 1,
      "fused_tanh" : 0,
      "pad_fill_mode" : 0,
      "pad_b" : 0,
      "pad_l" : 0,
      "top" : "relu_MobilenetV1\/MobilenetV1\/Conv2d_4_depthwise\/Relu6:0",
      "blob_weights" : 31,
      "K" : 128,
      "blob_biases" : 29,
      "stride_x" : 2,
      "name" : "MobilenetV1\/MobilenetV1\/Conv2d_4_depthwise\/depthwise:0",
      "has_batch_norm" : 0,
      "type" : "convolution",
      "n_groups" : 128,
      "pad_t" : 0,
      "stride_y" : 2,
      "has_biases" : 1,
      "C" : 128,
      "bottom" : "MobilenetV1\/MobilenetV1\/Conv2d_3_pointwise\/Relu6:0",
      "weights" : {

      },
      "Nx" : 3,
      "pad_mode" : 1,
      "pad_value" : 0,
      "Ny" : 3,
      "n_parallel" : 1
    },
    {
      "alpha" : -1,
      "bottom" : "relu_MobilenetV1\/MobilenetV1\/Conv2d_4_depthwise\/Relu6:0",
      "weights" : {

      },
      "mode" : 6,
      "top" : "relu_MobilenetV1\/MobilenetV1\/Conv2d_4_depthwise\/Relu6:0_neg",
      "type" : "activation",
      "name" : "relu_MobilenetV1\/MobilenetV1\/Conv2d_4_depthwise\/Relu6:0_neg",
      "beta" : 0
    },
    {
      "alpha" : -6,
      "bottom" : "relu_MobilenetV1\/MobilenetV1\/Conv2d_4_depthwise\/Relu6:0_neg",
      "operation" : 25,
      "weights" : {

      },
      "fused_relu" : 0,
      "top" : "relu_MobilenetV1\/MobilenetV1\/Conv2d_4_depthwise\/Relu6:0_clip",
      "type" : "elementwise",
      "name" : "relu_MobilenetV1\/MobilenetV1\/Conv2d_4_depthwise\/Relu6:0_clip",
      "beta" : 0
    },
    {
      "alpha" : -1,
      "bottom" : "relu_MobilenetV1\/MobilenetV1\/Conv2d_4_depthwise\/Relu6:0_clip",
      "weights" : {

      },
      "mode" : 6,
      "top" : "MobilenetV1\/MobilenetV1\/Conv2d_4_depthwise\/Relu6:0",
      "type" : "activation",
      "name" : "MobilenetV1\/MobilenetV1\/Conv2d_4_depthwise\/Relu6:0",
      "beta" : 0
    },
    {
      "pad_r" : 0,
      "fused_relu" : 1,
      "fused_tanh" : 0,
      "pad_fill_mode" : 0,
      "pad_b" : 0,
      "pad_l" : 0,
      "top" : "relu_MobilenetV1\/MobilenetV1\/Conv2d_4_pointwise\/Relu6:0",
      "blob_weights" : 35,
      "K" : 128,
      "blob_biases" : 33,
      "name" : "MobilenetV1\/MobilenetV1\/Conv2d_4_pointwise\/Conv2D:0",
      "has_batch_norm" : 0,
      "type" : "convolution",
      "n_groups" : 1,
      "pad_t" : 0,
      "has_biases" : 1,
      "C" : 256,
      "bottom" : "MobilenetV1\/MobilenetV1\/Conv2d_4_depthwise\/Relu6:0",
      "weights" : {

      },
      "pad_mode" : 1,
      "Nx" : 1,
      "pad_value" : 0,
      "Ny" : 1,
      "n_parallel" : 1
    },
    {
      "alpha" : -1,
      "bottom" : "relu_MobilenetV1\/MobilenetV1\/Conv2d_4_pointwise\/Relu6:0",
      "weights" : {

      },
      "mode" : 6,
      "top" : "relu_MobilenetV1\/MobilenetV1\/Conv2d_4_pointwise\/Relu6:0_neg",
      "type" : "activation",
      "name" : "relu_MobilenetV1\/MobilenetV1\/Conv2d_4_pointwise\/Relu6:0_neg",
      "beta" : 0
    },
    {
      "alpha" : -6,
      "bottom" : "relu_MobilenetV1\/MobilenetV1\/Conv2d_4_pointwise\/Relu6:0_neg",
      "operation" : 25,
      "weights" : {

      },
      "fused_relu" : 0,
      "top" : "relu_MobilenetV1\/MobilenetV1\/Conv2d_4_pointwise\/Relu6:0_clip",
      "type" : "elementwise",
      "name" : "relu_MobilenetV1\/MobilenetV1\/Conv2d_4_pointwise\/Relu6:0_clip",
      "beta" : 0
    },
    {
      "alpha" : -1,
      "bottom" : "relu_MobilenetV1\/MobilenetV1\/Conv2d_4_pointwise\/Relu6:0_clip",
      "weights" : {

      },
      "mode" : 6,
      "top" : "MobilenetV1\/MobilenetV1\/Conv2d_4_pointwise\/Relu6:0",
      "type" : "activation",
      "name" : "MobilenetV1\/MobilenetV1\/Conv2d_4_pointwise\/Relu6:0",
      "beta" : 0
    },
    {
      "pad_r" : 0,
      "fused_relu" : 1,
      "fused_tanh" : 0,
      "pad_fill_mode" : 0,
      "pad_b" : 0,
      "pad_l" : 0,
      "top" : "relu_MobilenetV1\/MobilenetV1\/Conv2d_5_depthwise\/Relu6:0",
      "blob_weights" : 39,
      "K" : 256,
      "blob_biases" : 37,
      "name" : "MobilenetV1\/MobilenetV1\/Conv2d_5_depthwise\/depthwise:0",
      "has_batch_norm" : 0,
      "type" : "convolution",
      "n_groups" : 256,
      "pad_t" : 0,
      "has_biases" : 1,
      "C" : 256,
      "bottom" : "MobilenetV1\/MobilenetV1\/Conv2d_4_pointwise\/Relu6:0",
      "weights" : {

      },
      "pad_mode" : 1,
      "Nx" : 3,
      "pad_value" : 0,
      "Ny" : 3,
      "n_parallel" : 1
    },
    {
      "alpha" : -1,
      "bottom" : "relu_MobilenetV1\/MobilenetV1\/Conv2d_5_depthwise\/Relu6:0",
      "weights" : {

      },
      "mode" : 6,
      "top" : "relu_MobilenetV1\/MobilenetV1\/Conv2d_5_depthwise\/Relu6:0_neg",
      "type" : "activation",
      "name" : "relu_MobilenetV1\/MobilenetV1\/Conv2d_5_depthwise\/Relu6:0_neg",
      "beta" : 0
    },
    {
      "alpha" : -6,
      "bottom" : "relu_MobilenetV1\/MobilenetV1\/Conv2d_5_depthwise\/Relu6:0_neg",
      "operation" : 25,
      "weights" : {

      },
      "fused_relu" : 0,
      "top" : "relu_MobilenetV1\/MobilenetV1\/Conv2d_5_depthwise\/Relu6:0_clip",
      "type" : "elementwise",
      "name" : "relu_MobilenetV1\/MobilenetV1\/Conv2d_5_depthwise\/Relu6:0_clip",
      "beta" : 0
    },
    {
      "alpha" : -1,
      "bottom" : "relu_MobilenetV1\/MobilenetV1\/Conv2d_5_depthwise\/Relu6:0_clip",
      "weights" : {

      },
      "mode" : 6,
      "top" : "MobilenetV1\/MobilenetV1\/Conv2d_5_depthwise\/Relu6:0",
      "type" : "activation",
      "name" : "MobilenetV1\/MobilenetV1\/Conv2d_5_depthwise\/Relu6:0",
      "beta" : 0
    },
    {
      "pad_r" : 0,
      "fused_relu" : 1,
      "fused_tanh" : 0,
      "pad_fill_mode" : 0,
      "pad_b" : 0,
      "pad_l" : 0,
      "top" : "relu_MobilenetV1\/MobilenetV1\/Conv2d_5_pointwise\/Relu6:0",
      "blob_weights" : 43,
      "K" : 256,
      "blob_biases" : 41,
      "name" : "MobilenetV1\/MobilenetV1\/Conv2d_5_pointwise\/Conv2D:0",
      "has_batch_norm" : 0,
      "type" : "convolution",
      "n_groups" : 1,
      "pad_t" : 0,
      "has_biases" : 1,
      "C" : 256,
      "bottom" : "MobilenetV1\/MobilenetV1\/Conv2d_5_depthwise\/Relu6:0",
      "weights" : {

      },
      "pad_mode" : 1,
      "Nx" : 1,
      "pad_value" : 0,
      "Ny" : 1,
      "n_parallel" : 1
    },
    {
      "alpha" : -1,
      "bottom" : "relu_MobilenetV1\/MobilenetV1\/Conv2d_5_pointwise\/Relu6:0",
      "weights" : {

      },
      "mode" : 6,
      "top" : "relu_MobilenetV1\/MobilenetV1\/Conv2d_5_pointwise\/Relu6:0_neg",
      "type" : "activation",
      "name" : "relu_MobilenetV1\/MobilenetV1\/Conv2d_5_pointwise\/Relu6:0_neg",
      "beta" : 0
    },
    {
      "alpha" : -6,
      "bottom" : "relu_MobilenetV1\/MobilenetV1\/Conv2d_5_pointwise\/Relu6:0_neg",
      "operation" : 25,
      "weights" : {

      },
      "fused_relu" : 0,
      "top" : "relu_MobilenetV1\/MobilenetV1\/Conv2d_5_pointwise\/Relu6:0_clip",
      "type" : "elementwise",
      "name" : "relu_MobilenetV1\/MobilenetV1\/Conv2d_5_pointwise\/Relu6:0_clip",
      "beta" : 0
    },
    {
      "alpha" : -1,
      "bottom" : "relu_MobilenetV1\/MobilenetV1\/Conv2d_5_pointwise\/Relu6:0_clip",
      "weights" : {

      },
      "mode" : 6,
      "top" : "MobilenetV1\/MobilenetV1\/Conv2d_5_pointwise\/Relu6:0",
      "type" : "activation",
      "name" : "MobilenetV1\/MobilenetV1\/Conv2d_5_pointwise\/Relu6:0",
      "beta" : 0
    },
    {
      "pad_r" : 0,
      "fused_relu" : 1,
      "fused_tanh" : 0,
      "pad_fill_mode" : 0,
      "pad_b" : 0,
      "pad_l" : 0,
      "top" : "relu_MobilenetV1\/MobilenetV1\/Conv2d_6_depthwise\/Relu6:0",
      "blob_weights" : 47,
      "K" : 256,
      "blob_biases" : 45,
      "stride_x" : 2,
      "name" : "MobilenetV1\/MobilenetV1\/Conv2d_6_depthwise\/depthwise:0",
      "has_batch_norm" : 0,
      "type" : "convolution",
      "n_groups" : 256,
      "pad_t" : 0,
      "stride_y" : 2,
      "has_biases" : 1,
      "C" : 256,
      "bottom" : "MobilenetV1\/MobilenetV1\/Conv2d_5_pointwise\/Relu6:0",
      "weights" : {

      },
      "Nx" : 3,
      "pad_mode" : 1,
      "pad_value" : 0,
      "Ny" : 3,
      "n_parallel" : 1
    },
    {
      "alpha" : -1,
      "bottom" : "relu_MobilenetV1\/MobilenetV1\/Conv2d_6_depthwise\/Relu6:0",
      "weights" : {

      },
      "mode" : 6,
      "top" : "relu_MobilenetV1\/MobilenetV1\/Conv2d_6_depthwise\/Relu6:0_neg",
      "type" : "activation",
      "name" : "relu_MobilenetV1\/MobilenetV1\/Conv2d_6_depthwise\/Relu6:0_neg",
      "beta" : 0
    },
    {
      "alpha" : -6,
      "bottom" : "relu_MobilenetV1\/MobilenetV1\/Conv2d_6_depthwise\/Relu6:0_neg",
      "operation" : 25,
      "weights" : {

      },
      "fused_relu" : 0,
      "top" : "relu_MobilenetV1\/MobilenetV1\/Conv2d_6_depthwise\/Relu6:0_clip",
      "type" : "elementwise",
      "name" : "relu_MobilenetV1\/MobilenetV1\/Conv2d_6_depthwise\/Relu6:0_clip",
      "beta" : 0
    },
    {
      "alpha" : -1,
      "bottom" : "relu_MobilenetV1\/MobilenetV1\/Conv2d_6_depthwise\/Relu6:0_clip",
      "weights" : {

      },
      "mode" : 6,
      "top" : "MobilenetV1\/MobilenetV1\/Conv2d_6_depthwise\/Relu6:0",
      "type" : "activation",
      "name" : "MobilenetV1\/MobilenetV1\/Conv2d_6_depthwise\/Relu6:0",
      "beta" : 0
    },
    {
      "pad_r" : 0,
      "fused_relu" : 1,
      "fused_tanh" : 0,
      "pad_fill_mode" : 0,
      "pad_b" : 0,
      "pad_l" : 0,
      "top" : "relu_MobilenetV1\/MobilenetV1\/Conv2d_6_pointwise\/Relu6:0",
      "blob_weights" : 51,
      "K" : 256,
      "blob_biases" : 49,
      "name" : "MobilenetV1\/MobilenetV1\/Conv2d_6_pointwise\/Conv2D:0",
      "has_batch_norm" : 0,
      "type" : "convolution",
      "n_groups" : 1,
      "pad_t" : 0,
      "has_biases" : 1,
      "C" : 512,
      "bottom" : "MobilenetV1\/MobilenetV1\/Conv2d_6_depthwise\/Relu6:0",
      "weights" : {

      },
      "pad_mode" : 1,
      "Nx" : 1,
      "pad_value" : 0,
      "Ny" : 1,
      "n_parallel" : 1
    },
    {
      "alpha" : -1,
      "bottom" : "relu_MobilenetV1\/MobilenetV1\/Conv2d_6_pointwise\/Relu6:0",
      "weights" : {

      },
      "mode" : 6,
      "top" : "relu_MobilenetV1\/MobilenetV1\/Conv2d_6_pointwise\/Relu6:0_neg",
      "type" : "activation",
      "name" : "relu_MobilenetV1\/MobilenetV1\/Conv2d_6_pointwise\/Relu6:0_neg",
      "beta" : 0
    },
    {
      "alpha" : -6,
      "bottom" : "relu_MobilenetV1\/MobilenetV1\/Conv2d_6_pointwise\/Relu6:0_neg",
      "operation" : 25,
      "weights" : {

      },
      "fused_relu" : 0,
      "top" : "relu_MobilenetV1\/MobilenetV1\/Conv2d_6_pointwise\/Relu6:0_clip",
      "type" : "elementwise",
      "name" : "relu_MobilenetV1\/MobilenetV1\/Conv2d_6_pointwise\/Relu6:0_clip",
      "beta" : 0
    },
    {
      "alpha" : -1,
      "bottom" : "relu_MobilenetV1\/MobilenetV1\/Conv2d_6_pointwise\/Relu6:0_clip",
      "weights" : {

      },
      "mode" : 6,
      "top" : "MobilenetV1\/MobilenetV1\/Conv2d_6_pointwise\/Relu6:0",
      "type" : "activation",
      "name" : "MobilenetV1\/MobilenetV1\/Conv2d_6_pointwise\/Relu6:0",
      "beta" : 0
    },
    {
      "pad_r" : 0,
      "fused_relu" : 1,
      "fused_tanh" : 0,
      "pad_fill_mode" : 0,
      "pad_b" : 0,
      "pad_l" : 0,
      "top" : "relu_MobilenetV1\/MobilenetV1\/Conv2d_7_depthwise\/Relu6:0",
      "blob_weights" : 55,
      "K" : 512,
      "blob_biases" : 53,
      "name" : "MobilenetV1\/MobilenetV1\/Conv2d_7_depthwise\/depthwise:0",
      "has_batch_norm" : 0,
      "type" : "convolution",
      "n_groups" : 512,
      "pad_t" : 0,
      "has_biases" : 1,
      "C" : 512,
      "bottom" : "MobilenetV1\/MobilenetV1\/Conv2d_6_pointwise\/Relu6:0",
      "weights" : {

      },
      "pad_mode" : 1,
      "Nx" : 3,
      "pad_value" : 0,
      "Ny" : 3,
      "n_parallel" : 1
    },
    {
      "alpha" : -1,
      "bottom" : "relu_MobilenetV1\/MobilenetV1\/Conv2d_7_depthwise\/Relu6:0",
      "weights" : {

      },
      "mode" : 6,
      "top" : "relu_MobilenetV1\/MobilenetV1\/Conv2d_7_depthwise\/Relu6:0_neg",
      "type" : "activation",
      "name" : "relu_MobilenetV1\/MobilenetV1\/Conv2d_7_depthwise\/Relu6:0_neg",
      "beta" : 0
    },
    {
      "alpha" : -6,
      "bottom" : "relu_MobilenetV1\/MobilenetV1\/Conv2d_7_depthwise\/Relu6:0_neg",
      "operation" : 25,
      "weights" : {

      },
      "fused_relu" : 0,
      "top" : "relu_MobilenetV1\/MobilenetV1\/Conv2d_7_depthwise\/Relu6:0_clip",
      "type" : "elementwise",
      "name" : "relu_MobilenetV1\/MobilenetV1\/Conv2d_7_depthwise\/Relu6:0_clip",
      "beta" : 0
    },
    {
      "alpha" : -1,
      "bottom" : "relu_MobilenetV1\/MobilenetV1\/Conv2d_7_depthwise\/Relu6:0_clip",
      "weights" : {

      },
      "mode" : 6,
      "top" : "MobilenetV1\/MobilenetV1\/Conv2d_7_depthwise\/Relu6:0",
      "type" : "activation",
      "name" : "MobilenetV1\/MobilenetV1\/Conv2d_7_depthwise\/Relu6:0",
      "beta" : 0
    },
    {
      "pad_r" : 0,
      "fused_relu" : 1,
      "fused_tanh" : 0,
      "pad_fill_mode" : 0,
      "pad_b" : 0,
      "pad_l" : 0,
      "top" : "relu_MobilenetV1\/MobilenetV1\/Conv2d_7_pointwise\/Relu6:0",
      "blob_weights" : 59,
      "K" : 512,
      "blob_biases" : 57,
      "name" : "MobilenetV1\/MobilenetV1\/Conv2d_7_pointwise\/Conv2D:0",
      "has_batch_norm" : 0,
      "type" : "convolution",
      "n_groups" : 1,
      "pad_t" : 0,
      "has_biases" : 1,
      "C" : 512,
      "bottom" : "MobilenetV1\/MobilenetV1\/Conv2d_7_depthwise\/Relu6:0",
      "weights" : {

      },
      "pad_mode" : 1,
      "Nx" : 1,
      "pad_value" : 0,
      "Ny" : 1,
      "n_parallel" : 1
    },
    {
      "alpha" : -1,
      "bottom" : "relu_MobilenetV1\/MobilenetV1\/Conv2d_7_pointwise\/Relu6:0",
      "weights" : {

      },
      "mode" : 6,
      "top" : "relu_MobilenetV1\/MobilenetV1\/Conv2d_7_pointwise\/Relu6:0_neg",
      "type" : "activation",
      "name" : "relu_MobilenetV1\/MobilenetV1\/Conv2d_7_pointwise\/Relu6:0_neg",
      "beta" : 0
    },
    {
      "alpha" : -6,
      "bottom" : "relu_MobilenetV1\/MobilenetV1\/Conv2d_7_pointwise\/Relu6:0_neg",
      "operation" : 25,
      "weights" : {

      },
      "fused_relu" : 0,
      "top" : "relu_MobilenetV1\/MobilenetV1\/Conv2d_7_pointwise\/Relu6:0_clip",
      "type" : "elementwise",
      "name" : "relu_MobilenetV1\/MobilenetV1\/Conv2d_7_pointwise\/Relu6:0_clip",
      "beta" : 0
    },
    {
      "alpha" : -1,
      "bottom" : "relu_MobilenetV1\/MobilenetV1\/Conv2d_7_pointwise\/Relu6:0_clip",
      "weights" : {

      },
      "mode" : 6,
      "top" : "MobilenetV1\/MobilenetV1\/Conv2d_7_pointwise\/Relu6:0",
      "type" : "activation",
      "name" : "MobilenetV1\/MobilenetV1\/Conv2d_7_pointwise\/Relu6:0",
      "beta" : 0
    },
    {
      "pad_r" : 0,
      "fused_relu" : 1,
      "fused_tanh" : 0,
      "pad_fill_mode" : 0,
      "pad_b" : 0,
      "pad_l" : 0,
      "top" : "relu_MobilenetV1\/MobilenetV1\/Conv2d_8_depthwise\/Relu6:0",
      "blob_weights" : 63,
      "K" : 512,
      "blob_biases" : 61,
      "name" : "MobilenetV1\/MobilenetV1\/Conv2d_8_depthwise\/depthwise:0",
      "has_batch_norm" : 0,
      "type" : "convolution",
      "n_groups" : 512,
      "pad_t" : 0,
      "has_biases" : 1,
      "C" : 512,
      "bottom" : "MobilenetV1\/MobilenetV1\/Conv2d_7_pointwise\/Relu6:0",
      "weights" : {

      },
      "pad_mode" : 1,
      "Nx" : 3,
      "pad_value" : 0,
      "Ny" : 3,
      "n_parallel" : 1
    },
    {
      "alpha" : -1,
      "bottom" : "relu_MobilenetV1\/MobilenetV1\/Conv2d_8_depthwise\/Relu6:0",
      "weights" : {

      },
      "mode" : 6,
      "top" : "relu_MobilenetV1\/MobilenetV1\/Conv2d_8_depthwise\/Relu6:0_neg",
      "type" : "activation",
      "name" : "relu_MobilenetV1\/MobilenetV1\/Conv2d_8_depthwise\/Relu6:0_neg",
      "beta" : 0
    },
    {
      "alpha" : -6,
      "bottom" : "relu_MobilenetV1\/MobilenetV1\/Conv2d_8_depthwise\/Relu6:0_neg",
      "operation" : 25,
      "weights" : {

      },
      "fused_relu" : 0,
      "top" : "relu_MobilenetV1\/MobilenetV1\/Conv2d_8_depthwise\/Relu6:0_clip",
      "type" : "elementwise",
      "name" : "relu_MobilenetV1\/MobilenetV1\/Conv2d_8_depthwise\/Relu6:0_clip",
      "beta" : 0
    },
    {
      "alpha" : -1,
      "bottom" : "relu_MobilenetV1\/MobilenetV1\/Conv2d_8_depthwise\/Relu6:0_clip",
      "weights" : {

      },
      "mode" : 6,
      "top" : "MobilenetV1\/MobilenetV1\/Conv2d_8_depthwise\/Relu6:0",
      "type" : "activation",
      "name" : "MobilenetV1\/MobilenetV1\/Conv2d_8_depthwise\/Relu6:0",
      "beta" : 0
    },
    {
      "pad_r" : 0,
      "fused_relu" : 1,
      "fused_tanh" : 0,
      "pad_fill_mode" : 0,
      "pad_b" : 0,
      "pad_l" : 0,
      "top" : "relu_MobilenetV1\/MobilenetV1\/Conv2d_8_pointwise\/Relu6:0",
      "blob_weights" : 67,
      "K" : 512,
      "blob_biases" : 65,
      "name" : "MobilenetV1\/MobilenetV1\/Conv2d_8_pointwise\/Conv2D:0",
      "has_batch_norm" : 0,
      "type" : "convolution",
      "n_groups" : 1,
      "pad_t" : 0,
      "has_biases" : 1,
      "C" : 512,
      "bottom" : "MobilenetV1\/MobilenetV1\/Conv2d_8_depthwise\/Relu6:0",
      "weights" : {

      },
      "pad_mode" : 1,
      "Nx" : 1,
      "pad_value" : 0,
      "Ny" : 1,
      "n_parallel" : 1
    },
    {
      "alpha" : -1,
      "bottom" : "relu_MobilenetV1\/MobilenetV1\/Conv2d_8_pointwise\/Relu6:0",
      "weights" : {

      },
      "mode" : 6,
      "top" : "relu_MobilenetV1\/MobilenetV1\/Conv2d_8_pointwise\/Relu6:0_neg",
      "type" : "activation",
      "name" : "relu_MobilenetV1\/MobilenetV1\/Conv2d_8_pointwise\/Relu6:0_neg",
      "beta" : 0
    },
    {
      "alpha" : -6,
      "bottom" : "relu_MobilenetV1\/MobilenetV1\/Conv2d_8_pointwise\/Relu6:0_neg",
      "operation" : 25,
      "weights" : {

      },
      "fused_relu" : 0,
      "top" : "relu_MobilenetV1\/MobilenetV1\/Conv2d_8_pointwise\/Relu6:0_clip",
      "type" : "elementwise",
      "name" : "relu_MobilenetV1\/MobilenetV1\/Conv2d_8_pointwise\/Relu6:0_clip",
      "beta" : 0
    },
    {
      "alpha" : -1,
      "bottom" : "relu_MobilenetV1\/MobilenetV1\/Conv2d_8_pointwise\/Relu6:0_clip",
      "weights" : {

      },
      "mode" : 6,
      "top" : "MobilenetV1\/MobilenetV1\/Conv2d_8_pointwise\/Relu6:0",
      "type" : "activation",
      "name" : "MobilenetV1\/MobilenetV1\/Conv2d_8_pointwise\/Relu6:0",
      "beta" : 0
    },
    {
      "pad_r" : 0,
      "fused_relu" : 1,
      "fused_tanh" : 0,
      "pad_fill_mode" : 0,
      "pad_b" : 0,
      "pad_l" : 0,
      "top" : "relu_MobilenetV1\/MobilenetV1\/Conv2d_9_depthwise\/Relu6:0",
      "blob_weights" : 71,
      "K" : 512,
      "blob_biases" : 69,
      "name" : "MobilenetV1\/MobilenetV1\/Conv2d_9_depthwise\/depthwise:0",
      "has_batch_norm" : 0,
      "type" : "convolution",
      "n_groups" : 512,
      "pad_t" : 0,
      "has_biases" : 1,
      "C" : 512,
      "bottom" : "MobilenetV1\/MobilenetV1\/Conv2d_8_pointwise\/Relu6:0",
      "weights" : {

      },
      "pad_mode" : 1,
      "Nx" : 3,
      "pad_value" : 0,
      "Ny" : 3,
      "n_parallel" : 1
    },
    {
      "alpha" : -1,
      "bottom" : "relu_MobilenetV1\/MobilenetV1\/Conv2d_9_depthwise\/Relu6:0",
      "weights" : {

      },
      "mode" : 6,
      "top" : "relu_MobilenetV1\/MobilenetV1\/Conv2d_9_depthwise\/Relu6:0_neg",
      "type" : "activation",
      "name" : "relu_MobilenetV1\/MobilenetV1\/Conv2d_9_depthwise\/Relu6:0_neg",
      "beta" : 0
    },
    {
      "alpha" : -6,
      "bottom" : "relu_MobilenetV1\/MobilenetV1\/Conv2d_9_depthwise\/Relu6:0_neg",
      "operation" : 25,
      "weights" : {

      },
      "fused_relu" : 0,
      "top" : "relu_MobilenetV1\/MobilenetV1\/Conv2d_9_depthwise\/Relu6:0_clip",
      "type" : "elementwise",
      "name" : "relu_MobilenetV1\/MobilenetV1\/Conv2d_9_depthwise\/Relu6:0_clip",
      "beta" : 0
    },
    {
      "alpha" : -1,
      "bottom" : "relu_MobilenetV1\/MobilenetV1\/Conv2d_9_depthwise\/Relu6:0_clip",
      "weights" : {

      },
      "mode" : 6,
      "top" : "MobilenetV1\/MobilenetV1\/Conv2d_9_depthwise\/Relu6:0",
      "type" : "activation",
      "name" : "MobilenetV1\/MobilenetV1\/Conv2d_9_depthwise\/Relu6:0",
      "beta" : 0
    },
    {
      "pad_r" : 0,
      "fused_relu" : 1,
      "fused_tanh" : 0,
      "pad_fill_mode" : 0,
      "pad_b" : 0,
      "pad_l" : 0,
      "top" : "relu_MobilenetV1\/MobilenetV1\/Conv2d_9_pointwise\/Relu6:0",
      "blob_weights" : 75,
      "K" : 512,
      "blob_biases" : 73,
      "name" : "MobilenetV1\/MobilenetV1\/Conv2d_9_pointwise\/Conv2D:0",
      "has_batch_norm" : 0,
      "type" : "convolution",
      "n_groups" : 1,
      "pad_t" : 0,
      "has_biases" : 1,
      "C" : 512,
      "bottom" : "MobilenetV1\/MobilenetV1\/Conv2d_9_depthwise\/Relu6:0",
      "weights" : {

      },
      "pad_mode" : 1,
      "Nx" : 1,
      "pad_value" : 0,
      "Ny" : 1,
      "n_parallel" : 1
    },
    {
      "alpha" : -1,
      "bottom" : "relu_MobilenetV1\/MobilenetV1\/Conv2d_9_pointwise\/Relu6:0",
      "weights" : {

      },
      "mode" : 6,
      "top" : "relu_MobilenetV1\/MobilenetV1\/Conv2d_9_pointwise\/Relu6:0_neg",
      "type" : "activation",
      "name" : "relu_MobilenetV1\/MobilenetV1\/Conv2d_9_pointwise\/Relu6:0_neg",
      "beta" : 0
    },
    {
      "alpha" : -6,
      "bottom" : "relu_MobilenetV1\/MobilenetV1\/Conv2d_9_pointwise\/Relu6:0_neg",
      "operation" : 25,
      "weights" : {

      },
      "fused_relu" : 0,
      "top" : "relu_MobilenetV1\/MobilenetV1\/Conv2d_9_pointwise\/Relu6:0_clip",
      "type" : "elementwise",
      "name" : "relu_MobilenetV1\/MobilenetV1\/Conv2d_9_pointwise\/Relu6:0_clip",
      "beta" : 0
    },
    {
      "alpha" : -1,
      "bottom" : "relu_MobilenetV1\/MobilenetV1\/Conv2d_9_pointwise\/Relu6:0_clip",
      "weights" : {

      },
      "mode" : 6,
      "top" : "MobilenetV1\/MobilenetV1\/Conv2d_9_pointwise\/Relu6:0",
      "type" : "activation",
      "name" : "MobilenetV1\/MobilenetV1\/Conv2d_9_pointwise\/Relu6:0",
      "beta" : 0
    },
    {
      "pad_r" : 0,
      "fused_relu" : 1,
      "fused_tanh" : 0,
      "pad_fill_mode" : 0,
      "pad_b" : 0,
      "pad_l" : 0,
      "top" : "relu_MobilenetV1\/MobilenetV1\/Conv2d_10_depthwise\/Relu6:0",
      "blob_weights" : 79,
      "K" : 512,
      "blob_biases" : 77,
      "name" : "MobilenetV1\/MobilenetV1\/Conv2d_10_depthwise\/depthwise:0",
      "has_batch_norm" : 0,
      "type" : "convolution",
      "n_groups" : 512,
      "pad_t" : 0,
      "has_biases" : 1,
      "C" : 512,
      "bottom" : "MobilenetV1\/MobilenetV1\/Conv2d_9_pointwise\/Relu6:0",
      "weights" : {

      },
      "pad_mode" : 1,
      "Nx" : 3,
      "pad_value" : 0,
      "Ny" : 3,
      "n_parallel" : 1
    },
    {
      "alpha" : -1,
      "bottom" : "relu_MobilenetV1\/MobilenetV1\/Conv2d_10_depthwise\/Relu6:0",
      "weights" : {

      },
      "mode" : 6,
      "top" : "relu_MobilenetV1\/MobilenetV1\/Conv2d_10_depthwise\/Relu6:0_neg",
      "type" : "activation",
      "name" : "relu_MobilenetV1\/MobilenetV1\/Conv2d_10_depthwise\/Relu6:0_neg",
      "beta" : 0
    },
    {
      "alpha" : -6,
      "bottom" : "relu_MobilenetV1\/MobilenetV1\/Conv2d_10_depthwise\/Relu6:0_neg",
      "operation" : 25,
      "weights" : {

      },
      "fused_relu" : 0,
      "top" : "relu_MobilenetV1\/MobilenetV1\/Conv2d_10_depthwise\/Relu6:0_clip",
      "type" : "elementwise",
      "name" : "relu_MobilenetV1\/MobilenetV1\/Conv2d_10_depthwise\/Relu6:0_clip",
      "beta" : 0
    },
    {
      "alpha" : -1,
      "bottom" : "relu_MobilenetV1\/MobilenetV1\/Conv2d_10_depthwise\/Relu6:0_clip",
      "weights" : {

      },
      "mode" : 6,
      "top" : "MobilenetV1\/MobilenetV1\/Conv2d_10_depthwise\/Relu6:0",
      "type" : "activation",
      "name" : "MobilenetV1\/MobilenetV1\/Conv2d_10_depthwise\/Relu6:0",
      "beta" : 0
    },
    {
      "pad_r" : 0,
      "fused_relu" : 1,
      "fused_tanh" : 0,
      "pad_fill_mode" : 0,
      "pad_b" : 0,
      "pad_l" : 0,
      "top" : "relu_MobilenetV1\/MobilenetV1\/Conv2d_10_pointwise\/Relu6:0",
      "blob_weights" : 83,
      "K" : 512,
      "blob_biases" : 81,
      "name" : "MobilenetV1\/MobilenetV1\/Conv2d_10_pointwise\/Conv2D:0",
      "has_batch_norm" : 0,
      "type" : "convolution",
      "n_groups" : 1,
      "pad_t" : 0,
      "has_biases" : 1,
      "C" : 512,
      "bottom" : "MobilenetV1\/MobilenetV1\/Conv2d_10_depthwise\/Relu6:0",
      "weights" : {

      },
      "pad_mode" : 1,
      "Nx" : 1,
      "pad_value" : 0,
      "Ny" : 1,
      "n_parallel" : 1
    },
    {
      "alpha" : -1,
      "bottom" : "relu_MobilenetV1\/MobilenetV1\/Conv2d_10_pointwise\/Relu6:0",
      "weights" : {

      },
      "mode" : 6,
      "top" : "relu_MobilenetV1\/MobilenetV1\/Conv2d_10_pointwise\/Relu6:0_neg",
      "type" : "activation",
      "name" : "relu_MobilenetV1\/MobilenetV1\/Conv2d_10_pointwise\/Relu6:0_neg",
      "beta" : 0
    },
    {
      "alpha" : -6,
      "bottom" : "relu_MobilenetV1\/MobilenetV1\/Conv2d_10_pointwise\/Relu6:0_neg",
      "operation" : 25,
      "weights" : {

      },
      "fused_relu" : 0,
      "top" : "relu_MobilenetV1\/MobilenetV1\/Conv2d_10_pointwise\/Relu6:0_clip",
      "type" : "elementwise",
      "name" : "relu_MobilenetV1\/MobilenetV1\/Conv2d_10_pointwise\/Relu6:0_clip",
      "beta" : 0
    },
    {
      "alpha" : -1,
      "bottom" : "relu_MobilenetV1\/MobilenetV1\/Conv2d_10_pointwise\/Relu6:0_clip",
      "weights" : {

      },
      "mode" : 6,
      "top" : "MobilenetV1\/MobilenetV1\/Conv2d_10_pointwise\/Relu6:0",
      "type" : "activation",
      "name" : "MobilenetV1\/MobilenetV1\/Conv2d_10_pointwise\/Relu6:0",
      "beta" : 0
    },
    {
      "pad_r" : 0,
      "fused_relu" : 1,
      "fused_tanh" : 0,
      "pad_fill_mode" : 0,
      "pad_b" : 0,
      "pad_l" : 0,
      "top" : "relu_MobilenetV1\/MobilenetV1\/Conv2d_11_depthwise\/Relu6:0",
      "blob_weights" : 87,
      "K" : 512,
      "blob_biases" : 85,
      "name" : "MobilenetV1\/MobilenetV1\/Conv2d_11_depthwise\/depthwise:0",
      "has_batch_norm" : 0,
      "type" : "convolution",
      "n_groups" : 512,
      "pad_t" : 0,
      "has_biases" : 1,
      "C" : 512,
      "bottom" : "MobilenetV1\/MobilenetV1\/Conv2d_10_pointwise\/Relu6:0",
      "weights" : {

      },
      "pad_mode" : 1,
      "Nx" : 3,
      "pad_value" : 0,
      "Ny" : 3,
      "n_parallel" : 1
    },
    {
      "alpha" : -1,
      "bottom" : "relu_MobilenetV1\/MobilenetV1\/Conv2d_11_depthwise\/Relu6:0",
      "weights" : {

      },
      "mode" : 6,
      "top" : "relu_MobilenetV1\/MobilenetV1\/Conv2d_11_depthwise\/Relu6:0_neg",
      "type" : "activation",
      "name" : "relu_MobilenetV1\/MobilenetV1\/Conv2d_11_depthwise\/Relu6:0_neg",
      "beta" : 0
    },
    {
      "alpha" : -6,
      "bottom" : "relu_MobilenetV1\/MobilenetV1\/Conv2d_11_depthwise\/Relu6:0_neg",
      "operation" : 25,
      "weights" : {

      },
      "fused_relu" : 0,
      "top" : "relu_MobilenetV1\/MobilenetV1\/Conv2d_11_depthwise\/Relu6:0_clip",
      "type" : "elementwise",
      "name" : "relu_MobilenetV1\/MobilenetV1\/Conv2d_11_depthwise\/Relu6:0_clip",
      "beta" : 0
    },
    {
      "alpha" : -1,
      "bottom" : "relu_MobilenetV1\/MobilenetV1\/Conv2d_11_depthwise\/Relu6:0_clip",
      "weights" : {

      },
      "mode" : 6,
      "top" : "MobilenetV1\/MobilenetV1\/Conv2d_11_depthwise\/Relu6:0",
      "type" : "activation",
      "name" : "MobilenetV1\/MobilenetV1\/Conv2d_11_depthwise\/Relu6:0",
      "beta" : 0
    },
    {
      "pad_r" : 0,
      "fused_relu" : 1,
      "fused_tanh" : 0,
      "pad_fill_mode" : 0,
      "pad_b" : 0,
      "pad_l" : 0,
      "top" : "relu_MobilenetV1\/MobilenetV1\/Conv2d_11_pointwise\/Relu6:0",
      "blob_weights" : 91,
      "K" : 512,
      "blob_biases" : 89,
      "name" : "MobilenetV1\/MobilenetV1\/Conv2d_11_pointwise\/Conv2D:0",
      "has_batch_norm" : 0,
      "type" : "convolution",
      "n_groups" : 1,
      "pad_t" : 0,
      "has_biases" : 1,
      "C" : 512,
      "bottom" : "MobilenetV1\/MobilenetV1\/Conv2d_11_depthwise\/Relu6:0",
      "weights" : {

      },
      "pad_mode" : 1,
      "Nx" : 1,
      "pad_value" : 0,
      "Ny" : 1,
      "n_parallel" : 1
    },
    {
      "alpha" : -1,
      "bottom" : "relu_MobilenetV1\/MobilenetV1\/Conv2d_11_pointwise\/Relu6:0",
      "weights" : {

      },
      "mode" : 6,
      "top" : "relu_MobilenetV1\/MobilenetV1\/Conv2d_11_pointwise\/Relu6:0_neg",
      "type" : "activation",
      "name" : "relu_MobilenetV1\/MobilenetV1\/Conv2d_11_pointwise\/Relu6:0_neg",
      "beta" : 0
    },
    {
      "alpha" : -6,
      "bottom" : "relu_MobilenetV1\/MobilenetV1\/Conv2d_11_pointwise\/Relu6:0_neg",
      "operation" : 25,
      "weights" : {

      },
      "fused_relu" : 0,
      "top" : "relu_MobilenetV1\/MobilenetV1\/Conv2d_11_pointwise\/Relu6:0_clip",
      "type" : "elementwise",
      "name" : "relu_MobilenetV1\/MobilenetV1\/Conv2d_11_pointwise\/Relu6:0_clip",
      "beta" : 0
    },
    {
      "alpha" : -1,
      "bottom" : "relu_MobilenetV1\/MobilenetV1\/Conv2d_11_pointwise\/Relu6:0_clip",
      "weights" : {

      },
      "mode" : 6,
      "top" : "MobilenetV1\/MobilenetV1\/Conv2d_11_pointwise\/Relu6:0",
      "type" : "activation",
      "name" : "MobilenetV1\/MobilenetV1\/Conv2d_11_pointwise\/Relu6:0",
      "beta" : 0
    },
    {
      "pad_r" : 0,
      "fused_relu" : 1,
      "fused_tanh" : 0,
      "pad_fill_mode" : 0,
      "pad_b" : 0,
      "pad_l" : 0,
      "top" : "relu_MobilenetV1\/MobilenetV1\/Conv2d_12_depthwise\/Relu6:0",
      "blob_weights" : 95,
      "K" : 512,
      "blob_biases" : 93,
      "stride_x" : 2,
      "name" : "MobilenetV1\/MobilenetV1\/Conv2d_12_depthwise\/depthwise:0",
      "has_batch_norm" : 0,
      "type" : "convolution",
      "n_groups" : 512,
      "pad_t" : 0,
      "stride_y" : 2,
      "has_biases" : 1,
      "C" : 512,
      "bottom" : "MobilenetV1\/MobilenetV1\/Conv2d_11_pointwise\/Relu6:0",
      "weights" : {

      },
      "Nx" : 3,
      "pad_mode" : 1,
      "pad_value" : 0,
      "Ny" : 3,
      "n_parallel" : 1
    },
    {
      "alpha" : -1,
      "bottom" : "relu_MobilenetV1\/MobilenetV1\/Conv2d_12_depthwise\/Relu6:0",
      "weights" : {

      },
      "mode" : 6,
      "top" : "relu_MobilenetV1\/MobilenetV1\/Conv2d_12_depthwise\/Relu6:0_neg",
      "type" : "activation",
      "name" : "relu_MobilenetV1\/MobilenetV1\/Conv2d_12_depthwise\/Relu6:0_neg",
      "beta" : 0
    },
    {
      "alpha" : -6,
      "bottom" : "relu_MobilenetV1\/MobilenetV1\/Conv2d_12_depthwise\/Relu6:0_neg",
      "operation" : 25,
      "weights" : {

      },
      "fused_relu" : 0,
      "top" : "relu_MobilenetV1\/MobilenetV1\/Conv2d_12_depthwise\/Relu6:0_clip",
      "type" : "elementwise",
      "name" : "relu_MobilenetV1\/MobilenetV1\/Conv2d_12_depthwise\/Relu6:0_clip",
      "beta" : 0
    },
    {
      "alpha" : -1,
      "bottom" : "relu_MobilenetV1\/MobilenetV1\/Conv2d_12_depthwise\/Relu6:0_clip",
      "weights" : {

      },
      "mode" : 6,
      "top" : "MobilenetV1\/MobilenetV1\/Conv2d_12_depthwise\/Relu6:0",
      "type" : "activation",
      "name" : "MobilenetV1\/MobilenetV1\/Conv2d_12_depthwise\/Relu6:0",
      "beta" : 0
    },
    {
      "pad_r" : 0,
      "fused_relu" : 1,
      "fused_tanh" : 0,
      "pad_fill_mode" : 0,
      "pad_b" : 0,
      "pad_l" : 0,
      "top" : "relu_MobilenetV1\/MobilenetV1\/Conv2d_12_pointwise\/Relu6:0",
      "blob_weights" : 99,
      "K" : 512,
      "blob_biases" : 97,
      "name" : "MobilenetV1\/MobilenetV1\/Conv2d_12_pointwise\/Conv2D:0",
      "has_batch_norm" : 0,
      "type" : "convolution",
      "n_groups" : 1,
      "pad_t" : 0,
      "has_biases" : 1,
      "C" : 1024,
      "bottom" : "MobilenetV1\/MobilenetV1\/Conv2d_12_depthwise\/Relu6:0",
      "weights" : {

      },
      "pad_mode" : 1,
      "Nx" : 1,
      "pad_value" : 0,
      "Ny" : 1,
      "n_parallel" : 1
    },
    {
      "alpha" : -1,
      "bottom" : "relu_MobilenetV1\/MobilenetV1\/Conv2d_12_pointwise\/Relu6:0",
      "weights" : {

      },
      "mode" : 6,
      "top" : "relu_MobilenetV1\/MobilenetV1\/Conv2d_12_pointwise\/Relu6:0_neg",
      "type" : "activation",
      "name" : "relu_MobilenetV1\/MobilenetV1\/Conv2d_12_pointwise\/Relu6:0_neg",
      "beta" : 0
    },
    {
      "alpha" : -6,
      "bottom" : "relu_MobilenetV1\/MobilenetV1\/Conv2d_12_pointwise\/Relu6:0_neg",
      "operation" : 25,
      "weights" : {

      },
      "fused_relu" : 0,
      "top" : "relu_MobilenetV1\/MobilenetV1\/Conv2d_12_pointwise\/Relu6:0_clip",
      "type" : "elementwise",
      "name" : "relu_MobilenetV1\/MobilenetV1\/Conv2d_12_pointwise\/Relu6:0_clip",
      "beta" : 0
    },
    {
      "alpha" : -1,
      "bottom" : "relu_MobilenetV1\/MobilenetV1\/Conv2d_12_pointwise\/Relu6:0_clip",
      "weights" : {

      },
      "mode" : 6,
      "top" : "MobilenetV1\/MobilenetV1\/Conv2d_12_pointwise\/Relu6:0",
      "type" : "activation",
      "name" : "MobilenetV1\/MobilenetV1\/Conv2d_12_pointwise\/Relu6:0",
      "beta" : 0
    },
    {
      "pad_r" : 0,
      "fused_relu" : 1,
      "fused_tanh" : 0,
      "pad_fill_mode" : 0,
      "pad_b" : 0,
      "pad_l" : 0,
      "top" : "relu_MobilenetV1\/MobilenetV1\/Conv2d_13_depthwise\/Relu6:0",
      "blob_weights" : 103,
      "K" : 1024,
      "blob_biases" : 101,
      "name" : "MobilenetV1\/MobilenetV1\/Conv2d_13_depthwise\/depthwise:0",
      "has_batch_norm" : 0,
      "type" : "convolution",
      "n_groups" : 1024,
      "pad_t" : 0,
      "has_biases" : 1,
      "C" : 1024,
      "bottom" : "MobilenetV1\/MobilenetV1\/Conv2d_12_pointwise\/Relu6:0",
      "weights" : {

      },
      "pad_mode" : 1,
      "Nx" : 3,
      "pad_value" : 0,
      "Ny" : 3,
      "n_parallel" : 1
    },
    {
      "alpha" : -1,
      "bottom" : "relu_MobilenetV1\/MobilenetV1\/Conv2d_13_depthwise\/Relu6:0",
      "weights" : {

      },
      "mode" : 6,
      "top" : "relu_MobilenetV1\/MobilenetV1\/Conv2d_13_depthwise\/Relu6:0_neg",
      "type" : "activation",
      "name" : "relu_MobilenetV1\/MobilenetV1\/Conv2d_13_depthwise\/Relu6:0_neg",
      "beta" : 0
    },
    {
      "alpha" : -6,
      "bottom" : "relu_MobilenetV1\/MobilenetV1\/Conv2d_13_depthwise\/Relu6:0_neg",
      "operation" : 25,
      "weights" : {

      },
      "fused_relu" : 0,
      "top" : "relu_MobilenetV1\/MobilenetV1\/Conv2d_13_depthwise\/Relu6:0_clip",
      "type" : "elementwise",
      "name" : "relu_MobilenetV1\/MobilenetV1\/Conv2d_13_depthwise\/Relu6:0_clip",
      "beta" : 0
    },
    {
      "alpha" : -1,
      "bottom" : "relu_MobilenetV1\/MobilenetV1\/Conv2d_13_depthwise\/Relu6:0_clip",
      "weights" : {

      },
      "mode" : 6,
      "top" : "MobilenetV1\/MobilenetV1\/Conv2d_13_depthwise\/Relu6:0",
      "type" : "activation",
      "name" : "MobilenetV1\/MobilenetV1\/Conv2d_13_depthwise\/Relu6:0",
      "beta" : 0
    },
    {
      "pad_r" : 0,
      "fused_relu" : 1,
      "fused_tanh" : 0,
      "pad_fill_mode" : 0,
      "pad_b" : 0,
      "pad_l" : 0,
      "top" : "relu_MobilenetV1\/MobilenetV1\/Conv2d_13_pointwise\/Relu6:0",
      "blob_weights" : 107,
      "K" : 1024,
      "blob_biases" : 105,
      "name" : "MobilenetV1\/MobilenetV1\/Conv2d_13_pointwise\/Conv2D:0",
      "has_batch_norm" : 0,
      "type" : "convolution",
      "n_groups" : 1,
      "pad_t" : 0,
      "has_biases" : 1,
      "C" : 1024,
      "bottom" : "MobilenetV1\/MobilenetV1\/Conv2d_13_depthwise\/Relu6:0",
      "weights" : {

      },
      "pad_mode" : 1,
      "Nx" : 1,
      "pad_value" : 0,
      "Ny" : 1,
      "n_parallel" : 1
    },
    {
      "alpha" : -1,
      "bottom" : "relu_MobilenetV1\/MobilenetV1\/Conv2d_13_pointwise\/Relu6:0",
      "weights" : {

      },
      "mode" : 6,
      "top" : "relu_MobilenetV1\/MobilenetV1\/Conv2d_13_pointwise\/Relu6:0_neg",
      "type" : "activation",
      "name" : "relu_MobilenetV1\/MobilenetV1\/Conv2d_13_pointwise\/Relu6:0_neg",
      "beta" : 0
    },
    {
      "alpha" : -6,
      "bottom" : "relu_MobilenetV1\/MobilenetV1\/Conv2d_13_pointwise\/Relu6:0_neg",
      "operation" : 25,
      "weights" : {

      },
      "fused_relu" : 0,
      "top" : "relu_MobilenetV1\/MobilenetV1\/Conv2d_13_pointwise\/Relu6:0_clip",
      "type" : "elementwise",
      "name" : "relu_MobilenetV1\/MobilenetV1\/Conv2d_13_pointwise\/Relu6:0_clip",
      "beta" : 0
    },
    {
      "alpha" : -1,
      "bottom" : "relu_MobilenetV1\/MobilenetV1\/Conv2d_13_pointwise\/Relu6:0_clip",
      "weights" : {

      },
      "mode" : 6,
      "top" : "MobilenetV1\/MobilenetV1\/Conv2d_13_pointwise\/Relu6:0",
      "type" : "activation",
      "name" : "MobilenetV1\/MobilenetV1\/Conv2d_13_pointwise\/Relu6:0",
      "beta" : 0
    },
    {
      "pad_value" : 0,
      "average_count_exclude_padding" : 1,
      "top_shape_style" : 0,
      "avg_or_max" : 0,
      "stride_x" : 2,
      "pad_mode" : 2,
      "stride_y" : 2,
      "pad_t" : 0,
      "weights" : {

      },
      "size_y" : 7,
      "type" : "pool",
      "pad_r" : 0,
      "pad_b" : 0,
      "size_x" : 7,
      "pad_fill_mode" : 0,
      "bottom" : "MobilenetV1\/MobilenetV1\/Conv2d_13_pointwise\/Relu6:0",
      "pad_l" : 0,
      "name" : "MobilenetV1\/Logits\/AvgPool_1a\/AvgPool:0",
      "top" : "MobilenetV1\/Logits\/AvgPool_1a\/AvgPool:0"
    },
    {
      "pad_r" : 0,
      "fused_relu" : 0,
      "fused_tanh" : 0,
      "pad_fill_mode" : 0,
      "pad_b" : 0,
      "pad_l" : 0,
      "top" : "MobilenetV1\/Logits\/Conv2d_1c_1x1\/BiasAdd:0",
      "blob_weights" : 111,
      "K" : 1024,
      "blob_biases" : 109,
      "name" : "MobilenetV1\/Logits\/Conv2d_1c_1x1\/Conv2D:0",
      "has_batch_norm" : 0,
      "type" : "convolution",
      "n_groups" : 1,
      "pad_t" : 0,
      "has_biases" : 1,
      "C" : 1001,
      "bottom" : "MobilenetV1\/Logits\/AvgPool_1a\/AvgPool:0",
      "weights" : {

      },
      "pad_mode" : 1,
      "Nx" : 1,
      "pad_value" : 0,
      "Ny" : 1,
      "n_parallel" : 1
    },
    {
      "nB" : 1001,
      "top" : "final_retrain_ops\/Wx_plus_b\/add:0",
      "has_biases" : 1,
      "weights" : {

      },
      "nC" : 7,
      "blob_weights" : 115,
      "type" : "inner_product",
      "has_relu" : 0,
      "bottom" : "MobilenetV1\/Logits\/Conv2d_1c_1x1\/BiasAdd:0",
      "blob_biases" : 113,
      "has_tanh" : 0,
      "name" : "final_retrain_ops\/Wx_plus_b\/MatMul",
      "has_prelu" : 0
    },
    {
      "C" : 2,
      "weights" : {

      },
      "top" : "final_result__0",
      "type" : "softmax",
      "name" : "final_result:0",
      "bottom" : "final_retrain_ops\/Wx_plus_b\/add:0"
    }
  ]
}